…
        self.conv3 = nn.Conv2d(1, 2, 3, 1, padding=1, padding_mode="circular")
    def forward(self, x: Float[Array, "batch 2 w h"]
                ) -> Float[Array, "batch 2 w h"]:
        x = self.act1(self.bn1(self.conv1(x)))
        x = self.act2(self.bn2(self.conv2(x)))
        return self.conv3(x)
```

`torchinfo` 输出的模型结构分析如下

```text
==========================================================================================
Layer (type:depth-idx)                   Output Shape              Param #
==========================================================================================
SimpleCNNTiny                            [1, 2, 100, 100]          --
├─Conv2d: 1-1                            [1, 1, 100, 100]          19
├─BatchNorm2d: 1-2                       [1, 1, 100, 100]          2
├─ReLU: 1-3                              [1, 1, 100, 100]          --
├─Conv2d: 1-4                            [1, 1, 100, 100]          10
├─BatchNorm2d: 1-5                       [1, 1, 100, 100]          2
├─ReLU: 1-6                              [1, 1, 100, 100]          --
├─Conv2d: 1-7                            [1, 2, 100, 100]          20
==========================================================================================
Total params: 53                        Trainable params: 53
Non-trainable params: 0                 Total mult-adds (M): 0.49
==========================================================================================
Input size (MB): 0.08                   Forward/backward pass size (MB): 0.48
Params size (MB): 0.00                  Estimated Total Size (MB): 0.56
…
